…
Model Name: FastText DA Random Train-Test-Val
Training File: ./data/raw/OffensEval2019_Danish/danish_1600.tsv
Dropout Amount: [0.2, 0.2, 0.2, 0.2]
Regularization Amount: []
Units: [10, 8, 1]
Activation Functions: ['relu', 'sigmoid']
Optimizer: adam
Loss Function: binary_crossentropy
Metric: ['accuracy']
Epochs: 40
Batch Size: 512
# OOV Words: 0
MAX_SEQ_LEN: 1000
MAX_NUM_WORDS: 20000
Model Details:
_________________________________________________________________
Layer (type)                 Output Shape              Param #   
=================================================================
embedding_1 (Embedding)      (None, 1000, 300)         2256300   
_________________________________________________________________
bidirectional_1 (Bidirection (None, 20)                24880     
_________________________________________________________________
dropout_1 (Dropout)          (None, 20)                0         
_________________________________________________________________
dense_1 (Dense)              (None, 8)                 168       
_________________________________________________________________
activation_1 (Activation)    (None, 8)                 0         
_________________________________________________________________
dropout_2 (Dropout)          (None, 8)                 0         
_________________________________________________________________
dense_2 (Dense)              (None, 1)                 9         
_________________________________________________________________
activation_2 (Activation)    (None, 1)                 0         
=================================================================
Total params: 2,281,357
Trainable params: 25,057
Non-trainable params: 2,256,300
_________________________________________________________________
